Namespace(bs=32, cuda=1, data_path='/misc/vlgscratch2/LecunGroup/laura/cnn_data', device=1, dropout=0.3, epochs=30, filters=32, lr=0.0005, model_path='/misc/vlgscratch2/LecunGroup/laura/cnn_models/', nettype=2)
Files already downloaded and verified
Files already downloaded and verified
Number of flat weights: 2048
Sequential (
  (0): Conv2d(3, 32, kernel_size=(5, 5), stride=(2, 2))
  (1): BatchNorm2d(32, eps=1e-05, momentum=0.1, affine=True)
  (2): ReLU (inplace)
  (3): Dropout (p = 0.3)
  (4): ResidualBlock (
    (model): Sequential (
      (0): Conv2d(32, 32, kernel_size=(3, 3), stride=(1, 1), padding=(1, 1))
      (1): BatchNorm2d(32, eps=1e-05, momentum=0.1, affine=True)
      (2): ReLU (inplace)
      (3): Conv2d(32, 32, kernel_size=(3, 3), stride=(1, 1), padding=(1, 1))
      (4): BatchNorm2d(32, eps=1e-05, momentum=0.1, affine=True)
    )
  )
  (5): Dropout (p = 0.3)
  (6): ResidualBlock (
    (model): Sequential (
      (0): Conv2d(32, 32, kernel_size=(3, 3), stride=(1, 1), padding=(1, 1))
      (1): BatchNorm2d(32, eps=1e-05, momentum=0.1, affine=True)
      (2): ReLU (inplace)
      (3): Conv2d(32, 32, kernel_size=(3, 3), stride=(1, 1), padding=(1, 1))
      (4): BatchNorm2d(32, eps=1e-05, momentum=0.1, affine=True)
    )
  )
  (7): Conv2d(32, 64, kernel_size=(3, 3), stride=(2, 2), padding=(1, 1))
  (8): BatchNorm2d(64, eps=1e-05, momentum=0.1, affine=True)
  (9): ReLU (inplace)
  (10): Dropout (p = 0.3)
  (11): ResidualBlock (
    (model): Sequential (
      (0): Conv2d(64, 64, kernel_size=(3, 3), stride=(1, 1), padding=(1, 1))
      (1): BatchNorm2d(64, eps=1e-05, momentum=0.1, affine=True)
      (2): ReLU (inplace)
      (3): Conv2d(64, 64, kernel_size=(3, 3), stride=(1, 1), padding=(1, 1))
      (4): BatchNorm2d(64, eps=1e-05, momentum=0.1, affine=True)
    )
  )
  (12): Dropout (p = 0.3)
  (13): ResidualBlock (
    (model): Sequential (
      (0): Conv2d(64, 64, kernel_size=(3, 3), stride=(1, 1), padding=(1, 1))
      (1): BatchNorm2d(64, eps=1e-05, momentum=0.1, affine=True)
      (2): ReLU (inplace)
      (3): Conv2d(64, 64, kernel_size=(3, 3), stride=(1, 1), padding=(1, 1))
      (4): BatchNorm2d(64, eps=1e-05, momentum=0.1, affine=True)
    )
  )
  (14): Conv2d(64, 128, kernel_size=(3, 3), stride=(2, 2), padding=(1, 1))
  (15): BatchNorm2d(128, eps=1e-05, momentum=0.1, affine=True)
  (16): ReLU (inplace)
  (17): Dropout (p = 0.3)
)
Linear (2048 -> 10)
CUDA is available, training on GPU
Number of available devices: 4
Using device: 1
Train Epoch: 1 [0/50000 (0%)]	Loss: 2.516027
Train Epoch: 1 [3200/50000 (6%)]	Loss: 2.007942
Train Epoch: 1 [6400/50000 (13%)]	Loss: 1.822324
Train Epoch: 1 [9600/50000 (19%)]	Loss: 1.964442
Train Epoch: 1 [12800/50000 (26%)]	Loss: 1.993972
…
